data.pth (torch, 32575 bytes, 6 tensors)

l1.weight f4 [9, 493]
0	0xbf100ea1	-0.5627232
1	0x3fd46ef2	1.6596358
2	0xbe1451fd	-0.14484401
3	0x3dfde9ca	0.12398107
4	0x3e21682a	0.15762392
5	0x3da99443	0.08280232
6	0xbf89de36	-1.0770938
7	0x3f313ba7	0.6923165
8	0x3d896773	0.067091845
9	0xbe2bcab4	-0.16776544
10	0xbf3e03f2	-0.7422477
11	0x3ff55ba9	1.9168597
12	0x3ed3c949	0.41364506
13	0xbe641388	-0.22273076
14	0x3fb6795d	1.4255787
15	0x3ebfbb3d	0.3744754
16	0x3f301938	0.6878848
17	0x3e4eb802	0.20187381
18	0xbe7abba4	-0.24485642
19	0xbe1425f6	-0.14467606
20	0x3fb4f4dc	1.4137225
21	0x3fc8c8ba	1.5686257
22	0x403b8b7d	2.9303887
23	0x3e3b4d64	0.18291241
24	0x3f234f4a	0.6379286
25	0x3ef2903b	0.47375664
26	0x403276d3	2.7885025
27	0x40160021	2.3437579
28	0x3f962d99	1.1732665
29	0xbefd58e4	-0.4948188
30	0x3e425f11	0.18981577
31	0x3ff2cc4b	1.8968595
32	0x4080e227	4.0276065
33	0x3f89a88b	1.075456
34	0xbdf0aa9a	-0.1175129
35	0xbf2eba7f	-0.6825332
36	0x3fc635ea	1.5485203
37	0x3f304eeb	0.6887042
38	0x3ea043af	0.31301638
39	0x3e992329	0.29909638
40	0x3e915cae	0.2839102
41	0x3f059d81	0.52193457
42	0x3fadf36f	1.3589915
43	0xc05cf2cb	-3.452319
44	0x3feb21fb	1.8369745
45	0xbd901614	-0.07035461
46	0x3d905313	0.07047095
47	0xbdc41faa	-0.09576352
48	0x405f4155	3.4883626
49	0x40125f3b	2.2870624
50	0x4010d632	2.2630734
51	0x3e9ef29e	0.31044477
52	0x3f0c07e1	0.5469952
53	0x3ec09f88	0.37621713
54	0x3f28f92b	0.660052
55	0xbf2a0128	-0.66408014
56	0x3e2b3713	0.16720228
57	0x3eca66b2	0.39531475
58	0xbe8d1311	-0.2755361
59	0xbec613a6	-0.38686866
60	0x3f6ec558	0.9326987
61	0x3f9d3448	1.228158
62	0x3eb23274	0.34804118
63	0x3d8dc76b	0.069228016
64	0x3fb7baea	1.4353917
65	0x3e89ee93	0.2693983
66	0x3d46c001	0.048522953
67	0x3f897966	1.0740173
68	0xbed2aff8	-0.41149879
69	0x3fd599a5	1.6687514
70	0x3eae5100	0.34046173
71	0x3f952f87	1.1655129
72	0x402b15ce	2.6732059
73	0x3f2f2b37	0.68425316
74	0x3ebd2502	0.36942297
75	0x3fe86785	1.8156592
76	0x4010560e	2.2552524
77	0xbf77df54	-0.96825147
78	0x3f3fd4bf	0.74934
79	0x3f921e9d	1.1415592
80	0x3de1d2f5	0.11026565
81	0x3efd79f7	0.49507114
82	0x3df95334	0.12174073
83	0x3cc31383	0.023813015
84	0x3fc1e4b0	1.5147915
85	0x400443e7	2.0666444
86	0xbe5495c9	-0.20760264
87	0x3e1dba11	0.1540301
88	0x3edc897d	0.43073645
89	0x3fd3cef1	1.6547529
90	0xbeb097a5	-0.34490696
91	0xbe9e2be4	-0.3089286
92	0x3e7ad026	0.24493465
93	0x3f9efbc4	1.2420583
94	0xbfb33c00	-1.4002686
95	0xbf68cd7c	-0.90938544
96	0xbe82b6ae	-0.2553
97	0x3f8a5eba	1.0810158
98	0x40074113	2.1133468
99	0xbc8090d8	-0.015694067
100	0x3e2808de	0.16409633
101	0xbf5ed88b	-0.8704917
102	0x3e68e5f1	0.22743966
103	0xbef24908	-0.47321343
104	0x3ddf6f98	0.10909957
105	0x3f988aa8	1.1917315
106	0x3f9d0d28	1.226964
107	0x3e31e018	0.17370641
108	0x3f235fb4	0.63817906
109	0x401ba879	2.4321578
110	0x3f900c64	1.1253781
111	0x4054778e	3.319797
112	0x3f8d9d00	1.1063538
113	0x3f746fca	0.95483077
114	0x3f700f95	0.93773776
115	0x3f6a17ec	0.9144275
116	0x3f076699	0.52890927
117	0x3fed6cfc	1.8548884
118	0x3f8677e2	1.0505335
119	0x3d94faca	0.07274397
120	0x3f52651f	0.8218555
121	0x3f9d8124	1.2305036
122	0xbf012d78	-0.50460005
123	0x3f306aab	0.6891276
124	0x3fadc0d9	1.3574477
125	0x3faa6509	1.3312083
126	0x3f975822	1.1823771
127	0x3ed3fd1f	0.41404054
128	0x3ee78df8	0.452255
129	0x3f2c8ea6	0.67405164
130	0xbe21b8c4	-0.15793139
131	0x3ff3e2bf	1.9053572
132	0x3efbeb3a	0.492029
133	0x3f951f58	1.165019
134	0xbf3655e3	-0.712248
135	0x3f78173e	0.96910465
136	0xbffe4fc8	-1.9868097
137	0xbf539ecf	-0.826642
138	0x3fdf16b5	1.7428805
139	0x3ff98ffe	1.9497068
140	0x3fcdaa4d	1.6067597
141	0x3eb5ee35	0.355333
142	0xbf858322	-1.0430644
143	0xbf21ab9c	-0.6315248
144	0xbe69e0b1	-0.22839619
145	0x3f8d9e48	1.1063929
146	0x3f47469e	0.7784213
147	0x3f3477f2	0.7049552
148	0x3e2adecc	0.16686553
149	0x3e95a755	0.29229227
150	0x3e98272c	0.29717386
151	0x3e8d4509	0.27591732
152	0xbd9ed202	-0.077548996
153	0xbf3c7675	-0.7361825
154	0x3f175523	0.59114283
155	0x3d1b8889	0.037972007
156	0x3f828008	1.0195322
157	0x3f536a91	0.8258448
158	0x3e8dee1b	0.27720723
159	0x3fa7633d	1.307716
160	0x3e53a377	0.20667826
161	0xbb8e4bc3	-0.0043425276
162	0x3f515f61	0.8178616
163	0xbe84bdb3	-0.2592598
164	0x3f854c91	1.0413991
165	0x3f753794	0.9578793
166	0x3f8e41ed	1.1113869
167	0x3d12958c	0.03578715
168	0x3eebdbf8	0.4606626
169	0x3f973365	1.1812559
170	0xbf339336	-0.701465
171	0x3f5f7719	0.87291104
172	0xbea2445e	-0.31692785
173	0x3f085739	0.5325809
174	0x3f0f1e23	0.5590536
175	0x3e86c896	0.2632491
176	0x3e0394c7	0.12849723
177	0x3fed587a	1.8542626
178	0x3fcc7256	1.5972393
179	0xbf0747de	-0.52844036
180	0xbe6bf8c8	-0.23044121
181	0xbe49fb31	-0.19724728
182	0x3eec6fdb	0.4617909
183	0xbe5bcd1c	-0.21464962
184	0x3fc33a84	1.5252233
185	0x3eb2259c	0.3479432
186	0x3f3c06fe	0.7344817
187	0x3ebf7830	0.37396383
188	0x4064d9e8	3.5758
189	0x3fc163ff	1.5108641
190	0x3ed2ecaa	0.41196185
191	0xbfad2707	-1.3527535
192	0xbf0cabe2	-0.5494977
193	0x3ff1f329	1.8902332
194	0x3ecce17a	0.40015775
195	0xbe3fd3a2	-0.18733075
196	0x3ff41de2	1.907162
197	0x3ff5af0f	1.9194049
198	0x3e8aa957	0.2708232
199	0xbfe2a6d2	-1.770716
200	0x3f4d7ef2	0.8027183
201	0x3f806398	1.0030394
202	0x400d3566	2.2063842
203	0x3da15b16	0.078787014
204	0x3fa72794	1.3058953
205	0x3f467194	0.77517056
206	0x3d47648b	0.04867987
207	0x3f0886ac	0.5333049
208	0xbf847b6a	-1.0350163
209	0x3e88d967	0.26728365
210	0xbdd18138	-0.10229725
211	0x3fa943ac	1.3223777
212	0x3f2a30d6	0.6648077
213	0x3eb30bee	0.3497004
214	0x3eee9688	0.4659922
215	0xbf7df7e0	-0.9920635
216	0x4011d88f	2.2788427
217	0x3f5bf297	0.8591704
218	0x3e3b708c	0.18304652
219	0xbf3e3349	-0.74297005
220	0x3e7483df	0.2387843
221	0xbe5efd22	-0.2177625
222	0x3f10448d	0.563546
223	0xbeac6b1b	-0.33675465
224	0x3f3bb476	0.73322237
225	0x40185944	2.3804483
226	0x3d0c9426	0.034320973
227	0xbdebb38c	-0.11508855
228	0x3fc791e4	1.5591397
229	0x3f4991bf	0.78738016
230	0x400c8348	2.1955128
231	0xbf1f4f56	-0.6223043
232	0x3e900868	0.28131413
233	0xbda0a168	-0.07843286
234	0x3f91521e	1.1353185
235	0x3f9da1a6	1.2314956
236	0x3f3a893e	0.72865665
237	0x3ebcb26e	0.3685488
238	0x3f5d5b8f	0.8646783
239	0x3f5ff798	0.87487173
240	0x3e693c9d	0.22777028
241	0x3f8d63d4	1.104609
242	0x3f11e2da	0.56986773
243	0xbe84d5b9	-0.25944307
244	0x3e994a82	0.29939657
245	0x401b96c3	2.4310768
246	0x3ef73f8c	0.4829067
247	0x3dc47af1	0.09593762
248	0x3f398523	0.72468776
249	0x3fac3be6	1.345578
250	0xbd958f7d	-0.07302759
251	0x3e21b92b	0.15793292
252	0x3ececa84	0.40388882
253	0x3e3a33eb	0.18183868
254	0xbe675023	-0.22589163
255	0x3ea17d4e	0.31540912

l1.bias f4 [9]
0	0x40181707	2.3764055
1	0x3f58bb8a	0.8466116
2	0x3f08bef3	0.53416365
3	0x3f304146	0.688496
4	0x3f2f88ab	0.68567914
5	0x3f281867	0.65662235
6	0x3f098326	0.5371574
7	0x3e868be5	0.26278606
8	0xbe6a3327	-0.22871076

l2.weight f4 [9, 9]
0	0xbe9de6b3	-0.30840072
1	0x3df39c26	0.11895017
2	0x3fb77cc5	1.4334952
3	0x3fca81fe	1.582092
4	0x3fad0fe6	1.3520477
5	0xbf8b52e1	-1.0884668
6	0xbf845149	-1.0337306
7	0x3f8407df	1.0314902
8	0x40223dd7	2.5350244
9	0x4029e9de	2.6548991
10	0x3ffd91d2	1.9810126
11	0x4081fa95	4.0618386
12	0x3eb98f05	0.36241928
13	0xbf075b3b	-0.5287358
14	0x3faec933	1.3655151
15	0xc0115f4c	-2.2714415
16	0xbe5c2dbd	-0.21501823
17	0xc03cd2f8	-2.9503765
18	0x408a731e	4.3265524
19	0x3f81349a	1.0094178
20	0xbd3361e5	-0.04379453
21	0xbff7cd9c	-1.9359622
22	0xbfabd667	-1.3424805
23	0x3f6b09f2	0.9181205
24	0x3fbefebf	1.4921492
25	0x3f9d1436	1.2271793
26	0x3f9753c3	1.1822437
27	0xbc0c8200	-0.008575916
28	0xbe7177e3	-0.2358089
29	0x3e04b2c8	0.12958825
30	0xbe5ead26	-0.21745738
31	0xbe1cefe6	-0.15325889
32	0x3d226bb8	0.03965351
33	0xbe879fe0	-0.26489162
34	0xbe178dd0	-0.14800191
35	0xbe3f0aa6	-0.18656406
36	0x3f1b15a5	0.605799
37	0xbe5c70d5	-0.21527417
38	0x400fa435	2.2443974
39	0x3fbf98a8	1.4968462
40	0xbfbacd1a	-1.4593842
41	0xbf2ae796	-0.6675962
42	0x4047ae70	3.1200218
43	0x3e1fbd44	0.15599543
44	0x3e2b4433	0.16725235
45	0x3e70b4e8	0.2350651
46	0x3f82705f	1.0190543
47	0xbf3b09b1	-0.7306166
48	0xbf52480d	-0.8214119
49	0x3fda4b3b	1.7054209
50	0x401312d6	2.2980247
51	0x3fcd7255	1.6050516
52	0x3e5d3b5e	0.21604678
53	0x3f45e923	0.77308863
54	0xbea29395	-0.3175322
55	0xbf26fe86	-0.6523212
56	0x3fe43c5d	1.7830921
57	0xbe5f341c	-0.21797222
58	0xbf880c4e	-1.0628755
59	0x401af4c0	2.4211884
60	0x3e88b1a5	0.26698032
61	0x4014059b	2.3128421
62	0x3e9f3954	0.31098425
63	0x3f8a837d	1.0821377
64	0x4023232e	2.5490222
65	0xbffd94c0	-1.981102
66	0x3f719052	0.9436084
67	0x3e9700c4	0.29492772
68	0xc0054843	-2.0825355
69	0xbf9a0be7	-1.2034882
70	0x40212cee	2.5183673
71	0x3fb7dc8c	1.436418
72	0x4090985f	4.5186
73	0xbff6b2da	-1.9273331
74	0xbf58b8a9	-0.8465677
75	0x4010d9bb	2.2632892
76	0x401476e3	2.3197563
77	0x3fee9717	1.8639859
78	0x3d712957	0.058877315
79	0xbe6679c5	-0.22507389
80	0xbe587d26	-0.2114149

l2.bias f4 [9]
0	0xbec17cda	-0.37790567
1	0x3f926e7d	1.1439968
2	0x3eecf62d	0.46281567
3	0xbe88eb67	-0.26742098
4	0x3e9cdadc	0.30635726
5	0x3e594c75	0.21220572
6	0xbf601efc	-0.8754728
7	0x3f80e2fa	1.0069268
8	0x3f6ee6a1	0.9332066

l3.weight f4 [86, 9]
0	0xbeb1713f	-0.34656712
1	0x3ea264f2	0.3171764
2	0xbf8abcd4	-1.0838876
3	0xbe3af3f8	-0.18257129
4	0xc00734f8	-2.112608
5	0xbf857c15	-1.0428492
6	0xbe610556	-0.21974692
7	0xbba244fb	-0.004952071
8	0xbfddf5ab	-1.7340597
9	0xbde26a7f	-0.11055469
10	0x3f4f10e3	0.8088514
11	0xbf38aac4	-0.7213557
12	0x3e329fae	0.17443725
13	0x3e00645a	0.12538281
14	0xc0243a50	-2.566059
15	0xbec5d447	-0.38638517
16	0x3e8fd07b	0.28088745
17	0xc09752e4	-4.7288685
18	0x3eb9de96	0.36302632
19	0x3e44349f	0.19160698
20	0xbf91c1eb	-1.1387304
21	0xbe261018	-0.16217077
22	0xbda24075	-0.079224505
23	0xc01563b5	-2.3342106
24	0xbf840441	-1.0313798
25	0xbf46f54e	-0.77718055
26	0xbfb257c5	-1.3933035
27	0xc0691fb5	-3.6425602
28	0x3f046711	0.51719767
29	0xbe4400ae	-0.19140884
30	0xbe925b76	-0.28585404
31	0xc08c82db	-4.3909736
32	0x3f19f332	0.6013671
33	0xbf88c186	-1.0684059
34	0xbfe21395	-1.7662226
35	0xbe58f7fb	-0.21188347
36	0xc01fe997	-2.4986322
37	0x3eecb8bb	0.46234688
38	0xbefff9bf	-0.4999523
39	0xbe98cc53	-0.29843387
40	0xbf221449	-0.633122
41	0xbfb20cac	-1.3910117
42	0xbf7385b6	-0.951259
43	0xc0787f5f	-3.882774
44	0x3e98d942	0.29853255
45	0xc02b279e	-2.674293
46	0xbee710b4	-0.4512993
47	0xbe50cb0a	-0.20389953
48	0x3e3177a2	0.17330793
49	0xbeb5ee19	-0.35533217
50	0xc04ca555	-3.197591
51	0xbe91ef53	-0.28502902
52	0xbea1503d	-0.3150653
53	0xbe4a4906	-0.19754419
54	0xbe06ae87	-0.13152514
55	0xbf543dfe	-0.8290709
56	0xbd3a8e3d	-0.045545805
57	0x3ea5b4b3	0.32364425
58	0xbf9db8b3	-1.2321991
59	0xc043a386	-3.0568557
60	0xbfdc4fd8	-1.7211866
61	0x3f6be4b8	0.9214587
62	0xbfb2e436	-1.3975894
63	0x3f1cb67b	0.61215943
64	0xbf5bc27d	-0.8584364
65	0xbfa74a3c	-1.306953
66	0xbe95685c	-0.29181182
67	0x3d5b4e48	0.05354145
68	0xc07e3d9b	-3.97251
69	0x3eefab9f	0.46810624
70	0x3e748cf7	0.23881899
71	0xbfc4152a	-1.5318959
72	0xbdc8293c	-0.0977349
73	0xc0376e78	-2.8661175
74	0x3e771298	0.24128187
75	0xbd777308	-0.060412437
76	0xbfe7d06a	-1.8110478
77	0xbfe9d0ec	-1.8266883
78	0x3e5fc5b0	0.21852756
79	0x3e4d2989	0.20035376
80	0xbe8268af	-0.25470492
81	0xbfda23e8	-1.7042208
82	0xbfae7d31	-1.3631955
83	0xbf7128b5	-0.9420274
84	0xbe6fb08b	-0.2340719
85	0xbffe9e96	-1.9892147
86	0xbe35ff49	-0.17773165
87	0x3de5acfe	0.11214636
88	0xbf6e05dc	-0.9297769
89	0x3efc0afa	0.49227124
90	0xc04ec0e6	-3.2305236
91	0xbedf41e6	-0.43604964
92	0xbeecefae	-0.4627661
93	0xbdae228c	-0.08502683
94	0x3f8552f8	1.0415945
95	0xbf9e4d12	-1.236727
96	0x3ef723f2	0.48269612
97	0xc04587eb	-3.0864208
98	0xbf17de04	-0.59323144
99	0xbf91048a	-1.132951
100	0x3f0a2d09	0.5397497
101	0xbf42edf3	-0.7614433
102	0x3cd5d380	0.026101828
103	0xc05a10b3	-3.4072692
104	0xbf357ee7	-0.7089676
105	0xbf81b983	-1.0134739
106	0xbf8c9295	-1.0982233
107	0xbe377b06	-0.17918023
108	0xbecf42ed	-0.40480748
109	0xbf105eda	-0.5639473
110	0xbe38faec	-0.18064469
111	0xbe373923	-0.1789289
112	0xc0c44c81	-6.134339
113	0xbf1cc064	-0.61231065
114	0xbf17c102	-0.5927888
115	0xbef8029a	-0.48439485
116	0xbeb5ce38	-0.35508895
117	0xbf5c44d9	-0.86042553
118	0xbf20bde7	-0.6278977
119	0x3e32a225	0.17444666
120	0xbe89cdf0	-0.2691493
121	0xbfe22d80	-1.7670135
122	0xbff88436	-1.9415348
123	0xc04c06e7	-3.1879213
124	0xbeb134cd	-0.34610596
125	0xbdc4cf49	-0.09609849
126	0x3d31e5e1	0.04343212
127	0xc0635efb	-3.5526721
128	0xbe440d53	-0.19145708
129	0xbe92f042	-0.28698927
130	0x3e18d7f7	0.14926134
131	0xbed0e6c1	-0.4080105
132	0xbf32ad6c	-0.6979587
133	0x3ecb4f5c	0.39708984
134	0xbf1b0888	-0.6055989
135	0xbee61871	-0.44940522
136	0xbeb74923	-0.35797986
137	0xbf90b827	-1.1306199
138	0x3e75cf0e	0.24004766
139	0x3f776745	0.9664195
140	0xc01bec0a	-2.4362817
141	0xbf886fb6	-1.0659091
142	0xc05ea2fa	-3.4786973
143	0xbdfadc37	-0.12249034
144	0xbd8a1e43	-0.06744053
145	0x3e72db1a	0.23716393
146	0xbde1dd7a	-0.110285714
147	0xbe3f5af8	-0.18687046
148	0xbfb8c26e	-1.4434335
149	0xbe4b2b62	-0.19840768
150	0xbf652bd9	-0.8952003
151	0xbff6d111	-1.9282552
152	0xbfdcf51e	-1.7262304
153	0xc026d813	-2.6069381
154	0x3eb96cb3	0.36215743
155	0xbb4dd451	-0.0031407068
156	0xbe27b608	-0.16378033
157	0xbfd18139	-1.6367561
158	0xbf8490da	-1.0356705
159	0x3d923853	0.07139649
160	0xbf3c98b4	-0.73670506
161	0xbfc3cfad	-1.5297753
162	0x3e515e53	0.20446138
163	0x3ef25488	0.47330117
164	0xc044b2dc	-3.0734167
165	0xbde7692c	-0.11299357
166	0xbf1510c5	-0.58228713
167	0xbfa3d9fe	-1.2800901
168	0xbf276fc1	-0.654049
169	0xc038945e	-2.8840556
170	0x3d86bd32	0.06579055
171	0xbf292f0d	-0.6608742
172	0xbeba4a88	-0.36384988
173	0xbff5c3f0	-1.920042
174	0x3e45ec82	0.19328502
175	0xbeae48fd	-0.3404006
176	0xc05305e8	-3.2972355
177	0xbff8b74e	-1.943094
178	0xbd78af0d	-0.060713816
179	0x3f0d1456	0.55109155
180	0xbf8f1259	-1.1177474
181	0x3edd080c	0.43170202
182	0x3cabb26c	0.020959102
183	0xbdb59386	-0.088660285
184	0xbfeda714	-1.8566613
185	0x3dd214f8	0.10257906
186	0xbea6c24c	-0.32570112
187	0x3e6a6e93	0.22893743
188	0xc091ff59	-4.5624204
189	0xc04468ce	-3.0688968
190	0xbf75e197	-0.9604735
191	0x3e6d5c0c	0.23179644
192	0x3d6bd160	0.057572722
193	0xc0201aac	-2.501628
194	0x3f0a1ddd	0.5395182
195	0xbe9ae5b4	-0.30253375
196	0xbf09b60c	-0.53793406
197	0xbf8354a0	-1.02602
198	0x3e815e11	0.2526708
199	0xbfd759cc	-1.6824279
200	0xbf2f41cd	-0.6845978
201	0xbe48520e	-0.19562551
202	0x3f35a15f	0.7094936
203	0xbf9f3ace	-1.2439821
204	0x3f390f52	0.72289
205	0xbcb61366	-0.022226047
206	0xc04a8e58	-3.164938
207	0xc07553ac	-3.833232
208	0xbfe73808	-1.8063974
209	0xbe8c74e9	-0.27432945
210	0xbe964367	-0.293483
211	0xbdf7d3c2	-0.121009365
212	0xbf3ca53b	-0.7368962
213	0xbf073cb6	-0.5282701
214	0xc03d8c6b	-2.9616954
215	0x3f7d2c8c	0.988961
216	0xc030a992	-2.7603498
217	0xc000e739	-2.0141127
218	0x3f376971	0.71645266
219	0x3ea47a5f	0.32124612
220	0xc01a02c1	-2.406418
221	0x3efeeae8	0.49788594
222	0xbe91e0f3	-0.28491935
223	0xc01b4978	-2.4263592
224	0x3e7d8643	0.24758248
225	0xc098a34e	-4.7699347
226	0x3ca582a1	0.02020389
227	0xbe63c45b	-0.22242872
228	0x3db8c12c	0.090212196
229	0xbf533df8	-0.8251643
230	0x3d7f7057	0.062362995
231	0xbeb8cf05	-0.36095443
232	0xbfacdb37	-1.3504399
233	0xbf1f8296	-0.62308633
234	0xbe85feb0	-0.26170874
235	0x3f2846ff	0.6573333
236	0xc047fec8	-3.1249256
237	0xbe87f41e	-0.26553434
238	0xbf76b692	-0.9637233
239	0xbfefca74	-1.8733659
240	0xbfa332ed	-1.2749916
241	0x3f6fe125	0.9370292
242	0xbf91ecc9	-1.1400386
243	0xc086bb22	-4.2103434
244	0x3faa3ce4	1.3299832
245	0x3e6e0563	0.23244242
246	0xbd9af2b4	-0.07565823
247	0xbfaa74bc	-1.3316875
248	0xbfc61e83	-1.5478061
249	0x3eaf0ba4	0.3418857
250	0xc087689f	-4.231521
251	0xbf3f1769	-0.74645096
252	0xbf98e34d	-1.1944367
253	0xbf801bf7	-1.0008534
254	0xbeada978	-0.33918357
255	0xbea2b84c	-0.31781232

l3.bias f4 [86]
0	0xbe57378a	-0.2101728
1	0xbd900cb9	-0.07033677
2	0xbede4abd	-0.43416396
3	0xbf094834	-0.536258
4	0xbf6bbb16	-0.92082345
5	0xbe3c0870	-0.18362594
6	0xbee369a9	-0.4441655
7	0xbec9a3ee	-0.3938288
8	0xbf37b320	-0.717577
9	0xbf5ec6ee	-0.8702229
10	0xbf152ef2	-0.5827476
11	0x3d568038	0.052368373
12	0xbf11c4f7	-0.5694117
13	0xbf31d172	-0.69460213
14	0x3e3f9168	0.18707812
15	0x3f282a6b	0.65689725
16	0xbf76a621	-0.9634724
17	0xbee9d698	-0.45671535
18	0xbe727d3b	-0.23680584
19	0x3ea72504	0.32645428
20	0x3d0ac132	0.03387565
21	0xbe8eac60	-0.27865887
22	0xbe801f73	-0.25023994
23	0xbe936222	-0.28785807
24	0x3c2c0c26	0.010500943
25	0xbe59c742	-0.21267417
26	0x3e9cfda8	0.30662274
27	0xbef74b6c	-0.4829973
28	0x3e8c6dbf	0.2742748
29	0x3ebf2ca7	0.37338755
30	0x3f03ffdd	0.5156229
31	0xbf9edd64	-1.2411313
32	0xbe471a58	-0.19443643
33	0xc0058991	-2.0865214
34	0xbf4e5f73	-0.80614394
35	0xbe36aa1f	-0.17838334
36	0xbf2fea10	-0.68716526
37	0x3de0d3d6	0.109779045
38	0xbf754c87	-0.95819896
39	0x3ea3ffc0	0.3203106
40	0xbe921aac	-0.28535974
41	0x3ec1f649	0.37883213
42	0xbf035b22	-0.5131093
43	0xbeca1820	-0.3947153
44	0x3c199f86	0.009376412
45	0xbf367531	-0.7127257
46	0xbe9594c6	-0.29215068
47	0x3e2986f3	0.16555385
48	0xbf95cc3c	-1.1702952
49	0xbe5244d4	-0.20534068
50	0xbf7b2a3e	-0.9811133
51	0xbe0b5ef3	-0.13610439
52	0xbf45ae4e	-0.7721909
53	0xbe04c52c	-0.1296584
54	0xbf107908	-0.5643468
55	0xbf23b154	-0.63942456
56	0xbfb92a5d	-1.4466053
57	0xbf1479bd	-0.5799826
58	0xbf39dbb7	-0.72600883
59	0xbe884966	-0.266185
60	0xbf0450f4	-0.51686025
61	0x3e84ab6d	0.25912037
62	0x3c8ac254	0.016938366
63	0x3edeee8d	0.43541375
64	0xbf91e861	-1.1399041
65	0xbee2e485	-0.44314972
66	0xbe4759f8	-0.19467914
67	0xbed3876e	-0.41314262
68	0xbe4f7dba	-0.20262805
69	0xbec58840	-0.38580513
70	0xbe8d9d3e	-0.2765903
71	0xbfab2dbe	-1.3373334
72	0x3f819126	1.0122421
73	0xbf3b7141	-0.73219687
74	0xbf5d0013	-0.8632824
75	0xbf52856b	-0.8223483
76	0x3d2a7ecb	0.041624825
77	0xbf13b0e0	-0.57691765
78	0xbe059f80	-0.13049126
79	0xbf58875f	-0.8458156
80	0xbdb2f166	-0.08737449
81	0x3d9a4886	0.07533364
82	0xbe1862f6	-0.148815
83	0xbf0a86fc	-0.5411222
84	0xbeeac80e	-0.45855755
85	0xbd6506aa	-0.05591456
